model/model.pt (torch, 141711 bytes, 8 tensors)

conv1.weight f4 [24, 1, 5, 5]
0	0x3e853525	0.2601711
1	0x3e233128	0.1593672
2	0xbdaaca62	-0.08339383
3	0xbc654de4	-0.013995621
4	0x3d8bf732	0.06834258
5	0x3e5c1ca0	0.21495295
6	0x3db9d52c	0.090738624
7	0x3cca1109	0.024666326
8	0xbcf5df61	-0.030013742
9	0x3c693ae9	0.014235237
10	0x3d31c140	0.04339719
11	0x3d35329e	0.044237725
12	0x3e673096	0.22577128
13	0x3eae2ff0	0.34020948
14	0x3e599633	0.21248703
15	0x3e084235	0.13306506
16	0x3e8ed9a2	0.27900416
17	0x3e5c21bd	0.21497245
18	0x3ebc7dee	0.36814827
19	0x3e8794d2	0.26480728
20	0x3ed60750	0.41802454
21	0xbe123628	-0.14278471
22	0xbdb9bcf2	-0.090692416
23	0xbed4fdfa	-0.4160002
24	0xbec95083	-0.39319238
25	0xbe3f8903	-0.1870461
26	0xbe959f81	-0.29223254
27	0xbe7933a2	-0.24336103
28	0x3e87ba46	0.26509303
29	0x3e76c633	0.24099045
30	0xbec5e989	-0.38654736
31	0xbeb619dc	-0.35566604
32	0xbe772096	-0.24133524
33	0x3e69c5ce	0.22829363
34	0x3ed34dfe	0.4127044
35	0xbdc0ac68	-0.09407884
36	0xbe310ad1	-0.17289282
37	0x3e44b7f9	0.19210805
38	0x3daebe5d	0.08532403
39	0xbdaa025d	-0.08301232
40	0x3e865974	0.26240122
41	0x3eaf93d2	0.34292465
42	0x3e3f9776	0.18710122
43	0xbe5ff41b	-0.21870463
44	0xbf21303c	-0.62964225
45	0x3ea8ac47	0.32943937
46	0x3e5cb3e9	0.21553005
47	0xbe067271	-0.13129593
48	0xbee667fe	-0.45001215
49	0xbd857663	-0.06516721
50	0xbd0d34b8	-0.034474105
51	0x3d83bab8	0.06432098
52	0x3db49817	0.08818071
53	0x3e4fa6e3	0.20278506
54	0x3d9db286	0.07700066
55	0x3e90646a	0.2820161
56	0x3ea9896c	0.33112657
57	0x3e856b7b	0.26058564
58	0x3c147200	0.009060383
59	0x3e14d70c	0.14535159
60	0xbec10b3b	-0.3770388
61	0xbf1d637d	-0.6147993
62	0xbf11d6f8	-0.5696864
63	0xbe78e869	-0.24307407
64	0xbe50ce23	-0.20391135
65	0xbe3837ec	-0.17990083
66	0xbe48ab2e	-0.1959655
67	0xbe8683be	-0.26272386
68	0xbe995c68	-0.29953313
69	0xbdd93719	-0.10606212
70	0x3eb6015c	0.35547912
71	0x3ef7d7ed	0.48406926
72	0x3f0078f9	0.5018459
73	0x3ea3f2d9	0.32021216
74	0x3de549f4	0.11195746
75	0x3d6179ca	0.055047788
76	0x3e28108d	0.16412564
77	0x3d1a2d46	0.037640832
78	0x3e5aefae	0.21380493
79	0x3e0cc547	0.1374713
80	0xbcc262f9	-0.023728834
81	0x3df5c137	0.119997434
82	0x3e8cf99f	0.27534196
83	0x3e654ef8	0.22393405
84	0x3e132bac	0.14372128
85	0xbe0248d3	-0.12723093
86	0x3dd988dc	0.10621807
87	0x3e2b5939	0.16733254
88	0x3deaec8e	0.114709005
89	0x3ebfc137	0.374521
90	0xbd93727e	-0.07199572
91	0x3de35bd9	0.11101503
92	0x3dfa33e1	0.12216926
93	0x3e17823b	0.14795773
94	0x3eaca541	0.3371983
95	0x3bbe909e	0.0058155796
96	0x3e585b14	0.21128494
97	0x3eb1a8bc	0.34699047
98	0x3ec5aa9e	0.38606733
99	0x3eac7e70	0.33690214
100	0x3e5817ed	0.21102877
101	0x3e6db70c	0.23214358
102	0x3e464970	0.19363952
103	0x3aead95e	0.0017917564
104	0xbd9f3332	-0.077734366
105	0x3e87c5f9	0.2651823
106	0x3e021141	0.12701894
107	0x3e06e3a5	0.13172777
108	0x3e113819	0.14181556
109	0x3ea9903e	0.3311786
110	0x3e14c3f5	0.14527877
111	0x3db1cc81	0.08681584
112	0x3e8900c4	0.26758397
113	0x3e9ba8db	0.30402264
114	0x3e1e49f6	0.15457901
115	0x3e3dfde8	0.18553889
116	0x3deca0db	0.11554118
117	0x3e954658	0.2915523
118	0x3eb84f1e	0.35997862
119	0x3d19c576	0.03754183
120	0x3e86777a	0.26263028
121	0x3ebb8410	0.36624193
122	0x3e9389d2	0.28816086
123	0x3d45a621	0.048254136
124	0xbe68c54e	-0.22731516
125	0x3edaa514	0.4270407
126	0x3eb97b45	0.3622686
127	0xbb8df9da	-0.004332763
128	0x3e8c8132	0.27442318
129	0x3ec5ebcc	0.3865646
130	0x3e48a7b8	0.1959523
131	0x3e2b6135	0.167363
132	0x3e58ffae	0.21191284
133	0xbea1269f	-0.31474778
134	0x3d434c11	0.047679964
135	0x3e043a43	0.1291285
136	0x3e4952de	0.19660518
137	0x3e435c99	0.19078292
138	0xbe5b2c76	-0.21403679
139	0xbda665e4	-0.08124903
140	0xbde11a4c	-0.10991344
141	0x3e795af3	0.243511
142	0x3e8f9442	0.280428
143	0xbd289eff	-0.041167255
144	0xbdb20d7f	-0.086939804
145	0xbaf59f18	-0.001873943
146	0xbe68a5ac	-0.22719449
147	0x3ed1bcbf	0.40964314
148	0xbd720b76	-0.05909296
149	0x3c08a333	0.008339691
150	0x3c6db69d	0.01450887
151	0x3dde6a46	0.10860114
152	0x3eaa8034	0.33300936
153	0x3e505379	0.20344342
154	0x3deed991	0.11662591
155	0x3ec5140a	0.3849185
156	0x3ed9ed0c	0.42563665
157	0x3e80a616	0.25126714
158	0x3e200534	0.15626985
159	0x3e2eefce	0.17083666
160	0x3e9f35e7	0.31095812
161	0x3eac15fc	0.33610523
162	0x3e5107b1	0.2041309
163	0x3b6e8989	0.0036397895
164	0xbe43767f	-0.19088171
165	0xbebc8836	-0.3682267
166	0xbf28f765	-0.66002494
167	0xbf4de9aa	-0.8043467
168	0xbf1ab6b6	-0.60435045
169	0xbeca2ac5	-0.39485756
170	0xbd158b38	-0.036509722
171	0xbdf0e286	-0.11761956
172	0xbc9f7679	-0.019465672
173	0x3c6e6b03	0.014551881
174	0x3dfe1422	0.12406184
175	0xbe3e4867	-0.18582307
176	0xbd56b676	-0.052420102
177	0x3db4ba60	0.08824611
178	0xbd13d061	-0.036087397
179	0xbe1aa7cc	-0.15103072
180	0x3e2ba68a	0.16762748
181	0x3e992c3c	0.2991656
182	0x3eb3477d	0.3501548
183	0x3ed19d93	0.40940532
184	0x3eb00676	0.3437993
185	0xbebb1862	-0.3654204
186	0xbed2e4ea	-0.41190273
187	0xbe35ed79	-0.1776637
188	0x3d242746	0.040076517
189	0x3d9f6d7e	0.07784556
190	0x3d7c0cc7	0.061535623
191	0x3e72b757	0.23702751
192	0x3ebd2c56	0.36947888
193	0x3eb4117b	0.35169587
194	0x3e4f8b7e	0.20268056
195	0xbd45814c	-0.04821901
196	0x3e16da86	0.14731798
197	0x3e07ede0	0.13274336
198	0x3e81f6d8	0.2538364
199	0x3d04ebad	0.03245132
200	0xbdbc8cc2	-0.09206535
201	0x3dcd5277	0.100254945
202	0xbe96e1ea	-0.29469234
203	0x3dc874a9	0.09787876
204	0x3ec94cd3	0.39316425
205	0x3e0d72cb	0.13813321
206	0x3e84ce87	0.25938818
207	0x3ba8d91d	0.005152835
208	0xbdebbfb7	-0.11511176
209	0x3dc0ae44	0.094082385
210	0x3e8ce0f3	0.27515373
211	0x3ee4587a	0.44598752
212	0x3eca1eca	0.39476615
213	0xbe5fc3ea	-0.21852079
214	0xbe936cd8	-0.2879398
215	0xbe6ef795	-0.23336633
216	0x3dd92e3e	0.10604523
217	0x3f0fa17a	0.5610577
218	0x3e847837	0.25872967
219	0xbdd16bb7	-0.10225623
220	0xbea012d5	-0.31264368
221	0xbde29ec9	-0.11065442
222	0x3dbfc65a	0.093640044
223	0x3ea85e17	0.32884285
224	0x3e54298e	0.20718977
225	0x3e887fd8	0.26660037
226	0x3ed20262	0.41017443
227	0x3d737da0	0.059445977
228	0xbea57b1c	-0.32320487
229	0xbe771b5b	-0.24131529
230	0xbe16337d	-0.14668079
231	0xbd95747e	-0.0729761
232	0xbe2139f8	-0.1574477
233	0x3e1e88de	0.15481898
234	0x3e234efd	0.159481
235	0xbe51023a	-0.20411006
236	0xbefa7406	-0.48916644
237	0xbe455e6b	-0.19274299
238	0x3de8c2e9	0.11365301
239	0x3e86e523	0.26346692
240	0x3e06fa86	0.13181505
241	0xbe3d60b4	-0.1849392
242	0x3e0779fd	0.13230129
243	0x3e0143a1	0.12623455
244	0xbdb3ad09	-0.08773238
245	0xbe1ccc62	-0.15312341
246	0x3e801ec7	0.2502348
247	0xbdd5d92a	-0.104418114
248	0x3ce6d5a7	0.02817805
249	0xbd1e6f1d	-0.038680185
250	0x3e96e053	0.2946802
251	0x3b8ffa6c	0.0043938663
252	0xbe649a67	-0.22324525
253	0x3eb7e90e	0.35919994
254	0x3e111d7a	0.141714
255	0x3ea90c27	0.33017084

conv1.bias f4 [24]
0	0xbd2cc9b7	-0.042184558
1	0x3ea94da1	0.3306704
2	0xbd0ede58	-0.034880012
3	0xbe5d486c	-0.21609658
4	0xbdd7ce55	-0.105374016
5	0xbe1e0c19	-0.15434302
6	0xbcf91a12	-0.03040794
7	0xbcb0ef68	-0.021598533
8	0x3dee3c3d	0.11632583
9	0x3e9e54b6	0.30924004
10	0x3e759515	0.23982652
11	0xbd6f3782	-0.058402546
12	0x3efdadb1	0.4954658
13	0xbe0cc68b	-0.13747613
14	0xba067b4f	-0.0005130069
15	0x3eb544a7	0.3540394
16	0xbb9391c2	-0.0045034597
17	0xbce8b7e0	-0.028407991
18	0xbd9faf8d	-0.077971555
19	0x3d071c73	0.032986116
20	0x3ddcc550	0.10779822
21	0xbdb95d2e	-0.09050976
22	0xbd95e407	-0.073188834
23	0x3af12756	0.0018398564

conv2.weight f4 [24, 24, 5, 5]
0	0x3cd4da33	0.025982952
1	0x3d4e4da9	0.05036703
2	0x3d84c5c4	0.06483033
3	0x3da50129	0.08056862
4	0xb983dab3	-0.0002514921
5	0xbd85204f	-0.06500303
6	0xbcd798a8	-0.02631791
7	0x3d1c2b13	0.038127016
8	0x3cc16e86	0.023612272
9	0x3bb96f2e	0.0056590056
10	0xbe1feaa9	-0.1561686
11	0xbd7635f2	-0.06011004
12	0xbd2d8f3a	-0.04237292
13	0xbd89b946	-0.06724791
14	0xbd2cbffc	-0.042175278
15	0xbe153221	-0.14569904
16	0x3b8f37f0	0.004370682
17	0xbd54a0db	-0.051911216
18	0x3a743f50	0.00093172956
19	0xbd29f5f7	-0.041494336
20	0xbdb015d0	-0.085979104
21	0xbd33ed95	-0.043927748
22	0x3d802ec1	0.062589176
23	0x3d8e601f	0.069519274
24	0x3bf2d955	0.007411162
25	0xbdbce333	-0.09223022
26	0xbe0d7dfa	-0.13817587
27	0xbec5cf5e	-0.3863477
28	0xbe94ceaa	-0.29063922
29	0x3daf0699	0.0854618
30	0xbe5e4023	-0.21704154
31	0xbed85609	-0.4225314
32	0xbe91870b	-0.28423342
33	0xbe235a10	-0.15952325
34	0xbe1dc61c	-0.15407604
35	0xbe72b658	-0.23702371
36	0xbe969748	-0.29412293
37	0xbe338617	-0.1753162
38	0x3c0c0b41	0.008547605
39	0x3cf2b38e	0.029626634
40	0xbe6d4500	-0.23170853
41	0xbe097827	-0.1342474
42	0xbd4c4f62	-0.049880393
43	0x3cb1ca75	0.021702984
44	0x3d6771b1	0.05650491
45	0xbe2b79b9	-0.16745652
46	0xbd9f076c	-0.077650875
47	0xbccd3175	-0.025047997
48	0xbc59e082	-0.013298156
49	0x3bf18b55	0.007371346
50	0x3db003a4	0.085944444
51	0x3e395f5e	0.18102786
52	0x3e43924a	0.19098774
53	0x3de4b6a1	0.11167646
54	0xbd2697c2	-0.04067207
55	0x3d8d65b0	0.06904161
56	0xbdffefee	-0.12496935
57	0xbe0ecdd1	-0.139457
58	0xbdb90488	-0.090340674
59	0xbe5a9f9f	-0.21349953
60	0xbebae541	-0.36503032
61	0xbeccb6b5	-0.39983144
62	0xbee042ce	-0.43800968
63	0xbef76b73	-0.48324165
64	0xbeb77147	-0.3582861
65	0xbeda6f19	-0.42662886
66	0xbf0a4d38	-0.54024076
67	0xbf0fa1d2	-0.56106293
68	0xbecffea3	-0.4062396
69	0xbe950219	-0.29103163
70	0xbe0a4c5e	-0.13505694
71	0xbe8871b1	-0.2664924
72	0xbe9998f7	-0.29999515
73	0xbe5c6d29	-0.21526016
74	0xbe18fad0	-0.14939427
75	0x3d35911f	0.04432785
76	0x3d58a198	0.052888483
77	0x3da145ec	0.07874665
78	0x3c6cb4bc	0.014447387
79	0xbd8c8f12	-0.06863226
80	0x3d9ffa40	0.07811403
81	0x3d5d70fc	0.05406283
82	0x3c1d4c1d	0.009600666
83	0x3d4e171d	0.05031501
84	0xbcf912be	-0.030404445
85	0x3d03a060	0.032135367
86	0x3caa355b	0.020777395
87	0xbb870ba1	-0.0041212593
88	0xbd85427b	-0.06506821
89	0xbd8a327a	-0.06747909
90	0x3d4a231f	0.0493499
91	0x3d53ae98	0.051680177
92	0x3bb03328	0.005377192
93	0xbbdd3503	-0.0067507043
94	0xbd82a109	-0.06378371
95	0x3e0e058d	0.13869305
96	0x3df84ef9	0.12124438
97	0x3cefd440	0.029276013
98	0xbc18f323	-0.009335312
99	0xbd464ad5	-0.04841121
100	0x3d3c2626	0.04593482
101	0x3d66acc8	0.05631712
102	0x3cbdfb46	0.023191106
103	0x3d540f4a	0.051772393
104	0xbd50fff5	-0.05102535
105	0xbb6d4c94	-0.0036208974
106	0x3d8793d1	0.066199906
107	0x3ce2e87f	0.027698753
108	0x3d25a9ae	0.040445022
109	0xbce65db5	-0.028120855
110	0xbdb8529d	-0.09000132
111	0xbd3a10f1	-0.045426313
112	0x3d0a18e5	0.033715148
113	0x3ccff7fe	0.025386807
114	0xbd56804b	-0.052368443
115	0xbde3ecdf	-0.11129164
116	0x3cfbeee8	0.030753568
117	0x3d34244e	0.043979935
118	0x3d0db724	0.034598485
119	0xbca8745b	-0.020563295
120	0xbca23b63	-0.019803708
121	0x3dc787aa	0.09742673
122	0x3d57fcda	0.052731372
123	0xbc3e820c	-0.011627685
124	0x3ca394b9	0.019968377
125	0x3c69fda6	0.014281666
126	0x3d9ed576	0.07755558
127	0x3dce9135	0.1008629
128	0x3c89acac	0.01680597
129	0xbb051f57	-0.002031287
130	0x3db068f1	0.08613766
131	0x3e0bb148	0.13641846
132	0x3de8097d	0.11329935
133	0x3dbe9fc2	0.09307815
134	0x3d04dfa3	0.03243984
135	0xbd2d675b	-0.042334896
136	0xbc9790e6	-0.01850171
137	0x3c9b4f05	0.018958578
138	0x3c15ee8a	0.00915111
139	0xbd43085d	-0.047615398
140	0xbdc6e9f4	-0.09712592
141	0x3bca28e0	0.0061694235
142	0xbc86cbdf	-0.016454635
143	0xbd388dc0	-0.04505706
144	0x3cbc163d	0.022959823
145	0xbdc7298f	-0.097247235
146	0xbd26749c	-0.04063855
147	0x3cff49a4	0.031163044
148	0xbb9912e4	-0.0046714414
149	0x3c60fbe6	0.013731932
150	0x3e9ed492	0.31021553
151	0x3e3ddd44	0.18541437
152	0x3e1c94ba	0.1529111
153	0x3cc8970e	0.024486091
154	0xbd648100	-0.055787086
155	0x3dbe7505	0.092996635
156	0xbc61091f	-0.013735085
157	0x3be45a3e	0.0069687655
158	0xbd4ed317	-0.05049428
159	0xbda39f29	-0.07989342
160	0xbdc51644	-0.096233875
161	0xbdaf759d	-0.08567355
162	0xbe0951fc	-0.13410181
163	0xbe80c579	-0.2515066
164	0xbe42b4c6	-0.19014272
165	0xbe411fc5	-0.18859775
166	0xbe833fea	-0.256347
167	0xbe943fe4	-0.28954995
168	0xbe81be1c	-0.25340354
169	0xbe17ae7c	-0.14812654
170	0xbe6d967f	-0.23201941
171	0xbe47358b	-0.19454019
172	0xbe139772	-0.1441324
173	0xbe02d90e	-0.12778112
174	0xbe282fd4	-0.16424495
175	0x3c6ad89a	0.014333868
176	0x3e082af1	0.13297631
177	0x3e0176e7	0.12643014
178	0x3d4b6467	0.049656298
179	0xbd592cd9	-0.053021286
180	0x3d181a9d	0.037134755
181	0x3d5f8ce6	0.05457773
182	0x3dabe2d6	0.08392875
183	0x3ce87dce	0.0283803
184	0xbc149c6b	-0.009070496
185	0xbc9fee4f	-0.019522814
186	0x3ce64c61	0.028112592
187	0xbc8d2514	-0.017229594
188	0xbc3b9a68	-0.011450388
189	0xbdb12925	-0.08650426
190	0xbd86ec11	-0.06587995
191	0xbcd13145	-0.025536189
192	0x3ca3ce8b	0.019995948
193	0xbbf98aaf	-0.0076154093
194	0xbd17d84b	-0.037071507
195	0x3ce65f5e	0.028121646
196	0x3d852df4	0.065029055
197	0x3c4e2269	0.012581446
198	0xbd60d8a0	-0.05489409
199	0xbdb2f6d0	-0.08738482
200	0x3da510fd	0.08059881
201	0x3db2b706	0.08726315
202	0xbc4d85f2	-0.012544142
203	0x3d74a6a3	0.05972923
204	0x3d003247	0.03129795
205	0xbb0ffffa	-0.0021972642
206	0xbd455a12	-0.0481816
207	0x3c737375	0.01485907
208	0xbcbb57a4	-0.022868939
209	0x3d2b272f	0.041785415
210	0xbd35977f	-0.04433393
211	0xbd817ca6	-0.06322603
212	0xbcb0b62a	-0.021571238
213	0x3c9ccfa3	0.019141978
214	0xba455b31	-0.0007528542
215	0xbdc84e6d	-0.097805835
216	0xbc2c69df	-0.0105232885
217	0x3cbc1030	0.022956938
218	0xbabf9790	-0.0014617313
219	0x3d9a87f5	0.07545463
220	0xbd4e4dff	-0.05036735
221	0xbd6f3538	-0.058400363
222	0x3d8c0326	0.06836538
223	0x3b6cb180	0.003611654
224	0x3d2cbf0d	0.042174388
225	0x3a5acd40	0.00083466247
226	0xbce90a9b	-0.02844744
227	0xbca728b7	-0.020405157
228	0x3d04d3eb	0.032428663
229	0xbdb57eaf	-0.088620536
230	0x3d170b0c	0.03687577
231	0xbd2926ac	-0.041296646
232	0xbd979f47	-0.074034266
233	0x3d48ba68	0.049005896
234	0x3d8104b3	0.062997244
235	0xbe037ff9	-0.12841786
236	0xbdfe6d82	-0.12423231
237	0xbdc12f6b	-0.094328724
238	0xbe04785b	-0.12936537
239	0x3c4f21b1	0.01264231
240	0xbd2e3a76	-0.04253622
241	0xbd6c0a89	-0.057627235
242	0xbdbb8cd0	-0.09157717
243	0xbcb9d689	-0.022685306
244	0xbd6fb8ea	-0.058525957
245	0xbca1f5f2	-0.019770596
246	0xbc8665aa	-0.0164059
247	0xbc4e552e	-0.012593551
248	0xbd884e71	-0.066555865
249	0x3c82e546	0.015978467
250	0xbc8e0bc2	-0.017339591
251	0x3d8f96c9	0.07011182
252	0x3dba4e61	0.09096981
253	0x3d4a4f63	0.049392115
254	0x3d814bfe	0.063133225
255	0x3c96528b	0.018349906

conv2.bias f4 [24]
0	0x3dc69710	0.09696782
1	0x3e4eac42	0.20182899
2	0x3e1dde66	0.1541687
3	0xbd92bc16	-0.07164781
4	0xbd9eab4f	-0.07747518
5	0x3c1a9a97	0.009436271
6	0xbd292850	-0.04129821
7	0xbd38a5c4	-0.04507996
8	0x3c8f0dd2	0.017462645
9	0xbdaf9e82	-0.08575155
10	0xbd7a7df2	-0.061155267
11	0xbdf755c0	-0.120769024
12	0xbde4a021	-0.11163355
13	0xbd611e22	-0.054960378
14	0xbafddaaf	-0.0019367541
15	0x3add3cf0	0.0016879123
16	0xbdd71ea6	-0.105038926
17	0xbd84012c	-0.06445536
18	0x3e2e1e65	0.17003782
19	0xbe17c70c	-0.14822024
20	0xbd4bcad8	-0.049753994
21	0xbe390970	-0.18070006
22	0xbe08ad63	-0.13347392
23	0xbd6c319d	-0.057664502

fc1.weight f4 [50, 384]
0	0x3e5dc2a1	0.21656276
1	0x3e06bcaf	0.13157915
2	0x3d457d0b	0.048214953
3	0xbd9ed47c	-0.07755372
4	0x3e01e01d	0.12683149
5	0x3d9d92d0	0.07694018
6	0x3ddca093	0.107728146
7	0x3d03046e	0.031986646
8	0x3e029b1f	0.12754487
9	0x3d55b214	0.05217178
10	0x3d290681	0.04126597
11	0x3c970c3a	0.018438447
12	0x3d39e626	0.045385502
13	0x3af4c32d	0.001867389
14	0x3c4b17de	0.012395827
15	0x3d444738	0.047919482
16	0xbbe385c5	-0.006943437
17	0xbd925bbe	-0.07146405
18	0xbd88c106	-0.06677441
19	0x3c66c028	0.0140839
20	0xbd7f2fa2	-0.062301286
21	0xbdf94c1a	-0.12172718
22	0xbd57b176	-0.052659474
23	0xbdbc95dc	-0.09208271
24	0xbe17cc05	-0.14823921
25	0xbc829aab	-0.015942892
26	0x3dcae042	0.09906055
27	0x3cd1c503	0.025606638
28	0xbe0f1e2b	-0.13976352
29	0xbe26947b	-0.16267578
30	0xbdeab17b	-0.11459633
31	0xbd0ef6ec	-0.03490345
32	0x3d922c79	0.07137389
33	0x3cda5830	0.02665338
34	0x3deadcf7	0.11467927
35	0x3d7c7231	0.06163234
36	0xbd88a2fc	-0.06671712
37	0xbdf524de	-0.119699225
38	0xbe573101	-0.21014787
39	0xbe291c00	-0.16514587
40	0xbd643cb1	-0.055721942
41	0xbc0f8252	-0.008759098
42	0xbd08c0d9	-0.03338704
43	0xbdb66578	-0.089060724
44	0xbd898c29	-0.067161866
45	0x3dbced65	0.09224967
46	0x3e035048	0.12823594
47	0x3d51bacf	0.051203545
48	0xbd2ff755	-0.042960484
49	0xbcbf3d91	-0.023344787
50	0xbd4f59fa	-0.050622918
51	0x3cb099cb	0.02155771
52	0x3bf248ef	0.0073939483
53	0xbd17bd43	-0.03704573
54	0x3b5a7b51	0.0033337662
55	0xbbab251b	-0.005222929
56	0x3c561f10	0.013068929
57	0xbcb1c9b1	-0.02170262
58	0xbd675918	-0.05648145
59	0x3d016fc2	0.03160072
60	0x3d62bd2f	0.0553562
61	0x3d9a1229	0.07522995
62	0x3c638199	0.013885879
63	0x3c80a835	0.015705207
64	0xbd9062fe	-0.07050131
65	0x3db6255c	0.088938445
66	0xbce6ceee	-0.028174844
67	0x3d2c79b7	0.042108264
68	0xbdcbefe8	-0.09957868
69	0xbd6f169f	-0.058371183
70	0xbd1f1958	-0.03884253
71	0x3b8a8f94	0.0042285416
72	0xbdbf1e9e	-0.09332012
73	0xbcd9e01b	-0.02659612
74	0xbd9ef163	-0.077608846
75	0xbe2180b6	-0.15771756
76	0xbd63057b	-0.05542515
77	0x3d8f4a1f	0.06996559
78	0xbd846d9d	-0.064662196
79	0xbd99e0a5	-0.07513551
80	0x3d146028	0.036224514
81	0xbd3c80db	-0.046021324
82	0xbd2836f4	-0.041068032
83	0xbdffc78e	-0.12489234
84	0xbd123dc0	-0.03570342
85	0xbd6aa0e7	-0.057282355
86	0xbb22c20a	-0.0024834895
87	0xbc482150	-0.012214974
88	0x3b1f5111	0.0024309794
89	0xbd174635	-0.03693219
90	0x3cb05b03	0.021527773
91	0x3d588c3e	0.05286812
92	0xbc382543	-0.011239353
93	0x3d4671ed	0.04844849
94	0x3dd87dc1	0.10570861
95	0x3cc30bcc	0.023809336
96	0xbe32c06b	-0.17456214
97	0xbe398aae	-0.18119308
98	0xbe180fe2	-0.14849809
99	0xbe0f167d	-0.13973422
100	0xbd8627d1	-0.06550563
101	0xbdb100c8	-0.08642727
102	0xbdb8c0c7	-0.09021144
103	0xbcf0ecc4	-0.029409774
104	0x3cca55c5	0.024699101
105	0xbbe359f7	-0.006938215
106	0x3d02602b	0.031829994
107	0xbcabf52c	-0.02099093
108	0x3d7b6b15	0.06138142
109	0x3cc515ad	0.024058187
110	0x3c41ec31	0.011836098
111	0x3d3d377f	0.046195503
112	0x3ce450e3	0.027870601
113	0xbd1c2c11	-0.038127962
114	0xbc1269f6	-0.008936396
115	0x3db57ab3	0.08861294
116	0xbcc3cf76	-0.023902636
117	0xbdbbebb1	-0.09175814
118	0xbda97999	-0.08275146
119	0xbd6a8369	-0.05725423
120	0xbe62bd9d	-0.22142644
121	0xbe21bcc8	-0.1579467
122	0xbe1fceb5	-0.15606196
123	0xbcfc3dd6	-0.030791204
124	0xbe410da5	-0.18852861
125	0xbd2d5c5b	-0.042324405
126	0xbc86a187	-0.016434444
127	0xbd26c54c	-0.0407155
128	0xbd58639a	-0.052829362
129	0xbd054853	-0.032539677
130	0xbdb5f2d4	-0.088842064
131	0xbd095efb	-0.033537846
132	0x3c8b7365	0.017022798
133	0x3c8afff2	0.016967747
134	0x3d31829f	0.04333746
135	0x3cdc4cb7	0.02689205
136	0xbce52906	-0.027973663
137	0x3c8fe991	0.017567428
138	0x3c4b288f	0.012399807
139	0x3cc20980	0.02368617
140	0x3d9d9cfc	0.07695958
141	0xbd939b68	-0.07207376
142	0xbd9ab5e6	-0.075542256
143	0xbe0781bb	-0.13233082
144	0xbd269365	-0.04066791
145	0x3daf165e	0.08549188
146	0xbcacd83c	-0.021099202
147	0xbc79449a	-0.01521411
148	0xbdcdb0b4	-0.10043469
149	0xbd4852e8	-0.04890719
150	0x3cc83f90	0.024444371
151	0x3be4d04c	0.0069828387
152	0xbd1c74a8	-0.03819719
153	0xbd61388d	-0.05498557
154	0x3c946662	0.018115226
155	0xbd5ce8db	-0.053933006
156	0x3c055311	0.00813748
157	0xbcb5d73b	-0.022197356
158	0xbd737e01	-0.05944634
159	0xbc9ffcc8	-0.019529715
160	0x3d5b662b	0.05356423
161	0x3c3b9f19	0.011451506
162	0x3d2bc2f5	0.041933972
163	0x3d8c7cbb	0.06859728
164	0xbd2c55de	-0.042074077
165	0xbd5ada75	-0.053430993
166	0xbd653ccf	-0.055966195
167	0xbb890d65	-0.004182505
168	0xbd716bff	-0.058940884
169	0xbc9a5bd7	-0.01884262
170	0x3c89e8e5	0.016834686
171	0xbd8f6637	-0.07001918
172	0x3ce688f3	0.028141474
173	0x3d81a9b4	0.063311964
174	0x3c6b12f8	0.014347784
175	0xbdba599d	-0.090991236
176	0xbd8c2f86	-0.06845002
177	0xbdc8e5ff	-0.09809493
178	0xbdc31be4	-0.09526804
179	0xbda6bd47	-0.081415705
180	0x3c63a6bf	0.013894736
181	0xbd306284	-0.0430627
182	0xbc5815e8	-0.013188817
183	0xbd285e68	-0.041105658
184	0x3e18a187	0.14905368
185	0xbb355d8a	-0.0027674162
186	0x3d5fae53	0.054609608
187	0x3cde8623	0.02716357
188	0x3c7f65c4	0.015588228
189	0x3d03f3db	0.03221498
190	0x3c69a0ac	0.014259499
191	0x3cbba08f	0.022903709
192	0x3df54c2b	0.119774185
193	0x3d771ef3	0.06033225
194	0x3e1da07d	0.15393253
195	0x3d3d8f77	0.046279397
196	0x3d08d176	0.033402883
197	0xbd1a9b8f	-0.03774601
198	0xbd36b21b	-0.04460345
199	0xbd0bc5c2	-0.034124143
200	0xbe4a12d5	-0.19733746
201	0xbdd0ad6e	-0.10189329
202	0xbd17d11f	-0.037064668
203	0x3c9a3aa9	0.0188268
204	0x3df5fe30	0.12011373
205	0x3d85c6e6	0.065320775
206	0x3dc63adf	0.096791975
207	0x3c8ae582	0.016955141
208	0x3d77cb2e	0.0604965
209	0xbcb826b4	-0.022479393
210	0x3ccd4084	0.025055178
211	0x3d89a605	0.06721119
212	0xbdc46b2f	-0.09590756
213	0xbdf1422e	-0.11780201
214	0xbe2b02b8	-0.16700256
215	0xbd1aad2d	-0.03776281
216	0xbcbeb564	-0.023279853
217	0xbc14f3c7	-0.009091324
218	0x3cd9c3bb	0.02658259
219	0xbe1bfa7d	-0.15232272
220	0x3d450978	0.048104733
221	0x3e2f7a4f	0.17136501
222	0x3e631002	0.22174075
223	0x3d82536a	0.06363566
224	0xbcf130c9	-0.029442208
225	0x3d24c164	0.040223494
226	0x3dbbc5de	0.091685995
227	0x3d357f2e	0.04431074
228	0x3cba2239	0.022721397
229	0xbd06329b	-0.032763105
230	0x3b9c7277	0.0047743875
231	0xbc9dfdfa	-0.019286145
232	0x3d597332	0.053088374
233	0x3c01dea4	0.007926617
234	0x39b764e7	0.00034979658
235	0xbcd7f6c6	-0.026362788
236	0x3cbd57a9	0.023113089
237	0x3dae7d27	0.08519965
238	0x3d1a726b	0.037706774
239	0xbdba5977	-0.09099095
240	0x3d8377c6	0.06419329
241	0x3c81c818	0.015842482
242	0x3b0435a7	0.002017358
243	0x3d622cb4	0.055218413
244	0xbd0288a4	-0.031868592
245	0x3dc52f07	0.096281104
246	0xbd90496d	-0.07045255
247	0xbceb9526	-0.028757643
248	0xbd5e5aec	-0.05428593
249	0xbd5c311c	-0.05375777
250	0xbc3667a8	-0.011133112
251	0xbb822437	-0.0039716023
252	0x3bbb08c3	0.0057078316
253	0xbd74be04	-0.059751526
254	0x3d5aebf1	0.053447668
255	0x3d64a500	0.05582142

fc1.bias f4 [50]
0	0xbd262aa4	-0.04056801
1	0xbdfeb6ad	-0.124371864
2	0x3d99d031	0.075104125
3	0xbcff669d	-0.03117686
4	0xbd16a03c	-0.036773905
5	0xbd5939e1	-0.053033713
6	0x3d4aea62	0.04953993
7	0x3d25277e	0.040320866
8	0xbced1810	-0.028942138
9	0xbd219598	-0.039449304
10	0xbc2936b6	-0.0103279855
11	0xbd0bbe64	-0.034117118
12	0xbc953a86	-0.018216383
13	0xbb3fde6b	-0.0029276859
14	0xbd41e9f3	-0.047342252
15	0x3d63e572	0.055638738
16	0x3d3b5555	0.045735676
17	0xbc008427	-0.007844008
18	0x3d00b078	0.031418294
19	0x3c88bf8e	0.016692903
20	0x3db47df7	0.088130884
21	0x3be517ae	0.006991348
22	0x3e0c4246	0.13697156
23	0x3cd67c98	0.026182458
24	0xbbb390a2	-0.005479888
25	0x3d24b56a	0.040212072
26	0xbd1487d1	-0.036262337
27	0xbd0a58e9	-0.033776198
28	0xbd089968	-0.033349425
29	0x3d13dce7	0.03609934
30	0x3ce0338e	0.027368333
31	0x3d2b06c3	0.041754495
32	0xbce905dd	-0.028445179
33	0x3c48bf3d	0.012252626
34	0x3bde1d77	0.006778415
35	0xbd2c5496	-0.042072855
36	0x3ca3aef1	0.01998088
37	0xbd0de526	-0.03464236
38	0xbd1873c5	-0.03721978
39	0xbd101a58	-0.035181373
40	0x3c76aae9	0.015055397
41	0xbc131dc2	-0.008979263
42	0xbd58dc8c	-0.052944705
43	0x3d35442a	0.04425446
44	0x3d224aad	0.039621998
45	0xbd12c495	-0.035832006
46	0xbb2d84ae	-0.0026476788
47	0x3d0eefc5	0.03489663
48	0xbc84706e	-0.016166892
49	0xbc7350f7	-0.0148508465

fc2.weight f4 [10, 50]
0	0xbdfcd896	-0.12345998
1	0xbc4d0bd0	-0.012515023
2	0x3e09b395	0.13447411
3	0x3dd92e48	0.106045306
4	0xbd0afd94	-0.033933237
5	0xbcfdb23c	-0.030968778
6	0x3cae7938	0.021298036
7	0xbe029bb8	-0.12754714
8	0x3c81f458	0.015863582
9	0xbd3f6ae8	-0.046732813
10	0x3b807b20	0.0039209276
11	0x3de2b1ca	0.11069067
12	0xbe087456	-0.13325629
13	0xbda9365f	-0.082623236
14	0x3e0a5359	0.13508357
15	0xbd43dc6a	-0.047817625
16	0xbbb773c0	-0.0055985153
17	0x3dfef1d6	0.1244847
18	0x3db09c18	0.086235225
19	0xbd520ad8	-0.051279873
20	0x3dd1eb64	0.10249975
21	0x3c998c38	0.01874362
22	0xbc98c54c	-0.018648766
23	0xbdd6c30c	-0.10486421
24	0x3df64dc2	0.1202655
25	0xbddfa01c	-0.1091921
26	0xbdd3e9b2	-0.10347308
27	0x3d7910d8	0.06080708
28	0x3b17cd40	0.002316311
29	0xbd85425a	-0.06506796
30	0xbd4d1bb4	-0.050075248
31	0x3db5be22	0.088741556
32	0xbd8b26d2	-0.06794514
33	0xbda6a5b5	-0.08137075
34	0xbd9df770	-0.077132106
35	0xbcbb3b50	-0.02285543
36	0xbd90242a	-0.07038148
37	0x3e0eca19	0.13944282
38	0xbd53c3ba	-0.05170033
39	0x3e060aa7	0.13090001
40	0xbd073e0e	-0.033018164
41	0x3d76a058	0.06021151
42	0xbdd496ce	-0.10380326
43	0xbdef861a	-0.116955
44	0x3d42b3bc	0.04753469
45	0xbe0be477	-0.13661371
46	0x3d5dc268	0.05414048
47	0x3d9f39e8	0.077747166
48	0x3c132e10	0.00898315
49	0xbd6725dc	-0.05643259
50	0x3b95f3e0	0.0045761913
51	0x3d3d36ac	0.046194717
52	0x3bf014e0	0.0073267072
53	0xbe0d4db8	-0.13799179
54	0x3c8651d0	0.016396433
55	0x3df94f86	0.12173371
56	0x3dc1f932	0.09471358
57	0xbde8c1d5	-0.113650955
58	0xbe10a404	-0.14125067
59	0x3d8eb306	0.0696774
60	0x3dd99e30	0.10625875
61	0xbe0d6c57	-0.1381086
62	0x3dfd5c7e	0.12371157
63	0x3de843ce	0.11341058
64	0x3d83260a	0.0640374
65	0x3cc0ef88	0.023551717
66	0xbdccfe98	-0.100094974
67	0x3cf06530	0.029345125
68	0x3dc4a970	0.0960263
69	0xbd812201	-0.06305314
70	0xbe055ce4	-0.13023716
71	0xbd9d0c63	-0.07668378
72	0x3e005beb	0.12535064
73	0x3e0e84b3	0.13917808
74	0xbdbc6b1b	-0.09200116
75	0x3e048fa5	0.12945421
76	0x3dfbd8d6	0.122972175
77	0x3cbefce0	0.02331394
78	0xbde72274	-0.11285868
79	0xbce5aa3c	-0.028035276
80	0xbd5e8e24	-0.054334775
81	0x3de9bce2	0.1141298
82	0x3d197d68	0.037473112
83	0xbe027828	-0.12741148
84	0x3d3a87d4	0.045539692
85	0x3d51a144	0.051179186
86	0xbddc523a	-0.10757871
87	0x3d6003f8	0.054691285
88	0x3db7cf12	0.089750424
89	0xbe07ffe7	-0.13281213
90	0xbdd9f2ae	-0.106419906
91	0xbd445304	-0.047930732
92	0x3db2443a	0.087044194
93	0x39662000	0.0002194643
94	0x3d7e721c	0.062120542
95	0xbcc25208	-0.023720756
96	0x3d8ec658	0.06971425
97	0xbd4aab10	-0.049479544
98	0x3da79f94	0.08184734
99	0xbde94b98	-0.113913715
100	0x3c8e0fb8	0.01734148
101	0xbc866280	-0.01640439
102	0x3df1dbce	0.118095025
103	0x3cedf798	0.029048726
104	0xbe02b664	-0.12764889
105	0x3d2ca8a0	0.042153
106	0x3ccd42a8	0.025056198
107	0xbc467e20	-0.0121150315
108	0x3ce954c8	0.02848281
109	0x3e075323	0.13215308
110	0xbbf9a400	-0.0076184273
111	0xbdc530a8	-0.09628421
112	0x3ce016d0	0.027354628
113	0x3d11e438	0.035618037
114	0x3d8b34c4	0.067971736
115	0x3d935960	0.07194781
116	0xbc473e40	-0.012160838
117	0xbdc5161f	-0.0962336
118	0x3dc7ece2	0.09761979
119	0xbde5d210	-0.11221707
120	0x3e0f87db	0.14016668
121	0x3db4b182	0.088229194
122	0xbe007974	-0.1254633
123	0xbd2d107c	-0.04225205
124	0x3dabf2c8	0.08395916
125	0x3d907f62	0.07055546
126	0x3d609000	0.05482483
127	0x3c2c4160	0.0105136335
128	0x3c95eb60	0.018300712
129	0xbdd32186	-0.103091285
130	0x3deb60e6	0.11493091
131	0xbd57b27c	-0.05266045
132	0x3dde15da	0.108440116
133	0xbcdbcbac	-0.026830517
134	0xbd9845c4	-0.07435182
135	0xbcb10f08	-0.021613613
136	0xbc9f0e90	-0.019416124
137	0x3e03f4df	0.1288638
138	0xbdf69a29	-0.120411225
139	0xbd8c7ac8	-0.06859356
140	0x3e09e9bf	0.13468073
141	0x3db6b44e	0.08921109
142	0xbd7c5a0e	-0.06160932
143	0x3b67b800	0.0035357475
144	0x3df29242	0.11844303
145	0xbd966cb8	-0.07344955
146	0xbd553354	-0.052050903
147	0xbda8f398	-0.08249587
148	0x3d057b20	0.032588124
149	0x3deaa1ce	0.11456643
150	0xbd4912f0	-0.049090326
151	0x3d9c401c	0.076294154
152	0x3cb41c00	0.021986008
153	0xbdd59c81	-0.104302414
154	0xbe09e51a	-0.13466302
155	0xbd911fba	-0.070861295
156	0xbc6152d0	-0.013752654
157	0xbe064694	-0.13112861
158	0xbdd3dba4	-0.103446275
159	0x3d503250	0.05082923
160	0x3af79c00	0.0018891096
161	0xbd7b186a	-0.06130258
162	0xbc772980	-0.015085578
163	0x3d073ad0	0.033015072
164	0xbdfceac4	-0.123494655
165	0x3d4cd7a4	0.05001034
166	0xbe04d568	-0.12972033
167	0x3d9d5456	0.076821014
168	0xbdfb30da	-0.12265177
169	0xbde43827	-0.11143523
170	0x3d2a5764	0.04158725
171	0xbc8094c0	-0.01569593
172	0x3cf907b8	0.030399188
173	0xbe0a7fb8	-0.13525283
174	0xbb254640	-0.0025218874
175	0xbdd7a74b	-0.105299555
176	0x3d925d18	0.071466625
177	0x3df58ec2	0.119901195
178	0x3dba4584	0.0909529
179	0x3d97a8b0	0.074052215
180	0xbd5c97ec	-0.05385582
181	0xbcbba204	-0.022904404
182	0x3d99d738	0.07511753
183	0x3db61702	0.08891107
184	0x3e08ebab	0.1337115
185	0x3d0390dc	0.03212057
186	0xbded000c	-0.115722746
187	0x3dd5aa90	0.10432923
188	0x3decdf6a	0.1156605
189	0xbd9453ce	-0.07242547
190	0xbd03741e	-0.03209316
191	0x3dccbc50	0.09996855
192	0xbb9da8c0	-0.0048113763
193	0x3d8d6d98	0.06905669
194	0xbddd7230	-0.10812795
195	0xbdeae0dd	-0.114686705
196	0x3e09cb5b	0.1345648
197	0x3dab43d0	0.083625436
198	0x3dcae63e	0.099071965
199	0x3d71a47c	0.058994755
200	0x3d5f3088	0.054489642
201	0xbcc10da4	-0.023566075
202	0xbdbaf255	-0.091282524
203	0xbddd3736	-0.10801546
204	0xbafbf980	-0.0019224137
205	0x3e0979cb	0.13425367
206	0xbdada73b	-0.08479162
207	0xbd9db743	-0.0770097
208	0x3dbe9c16	0.09307115
209	0xbdaa8c58	-0.0832755
210	0x3d832ea2	0.06405379
211	0x3dee69b6	0.116412565
212	0xba306000	-0.00067281723
213	0x3d9d8e76	0.07693188
214	0xbc05be30	-0.00816302
215	0xbd685a9a	-0.05672703
216	0x3c6b1c60	0.014350027
217	0xbda953bc	-0.08267924
218	0x3d31a8dc	0.043373927
219	0x3d95e21a	0.07318516
220	0x3d306888	0.04306844
221	0x3d8b5708	0.06803709
222	0x3d18b4cc	0.037281796
223	0x3cabdf00	0.020980358
224	0x3de50642	0.11182834
225	0x3e0d624b	0.13807027
226	0xbb524a00	-0.0032087564
227	0xbd6a236e	-0.057162695
228	0x3d42892c	0.0474941
229	0xbdd6ab0b	-0.104818426
230	0xbda8368c	-0.08213529
231	0xbdec79c2	-0.11546661
232	0xbd890fc3	-0.066924594
233	0xbc9cd15c	-0.0191428
234	0x3cb41840	0.02198422
235	0x3e05c341	0.13062765
236	0xbd63a032	-0.055572696
237	0xbe0264a0	-0.12733698
238	0xbdd06986	-0.10176377
239	0xbe102669	-0.14077152
240	0xbd2d7708	-0.042349845
241	0x3e0450ed	0.12921496
242	0xbd000830	-0.03125781
243	0xbd7cfc9a	-0.061764337
244	0xbd8a2a11	-0.06746305
245	0xbdeaa346	-0.11456923
246	0xbdc09940	-0.0940423
247	0x3e0f3023	0.13983206
248	0xbb3a5040	-0.002842918
249	0xbda1bd4b	-0.07897433
250	0xbe086761	-0.13320686
251	0xbd6d1f3a	-0.057891108
252	0xbbef6640	-0.0073058903
253	0xbdff5c04	-0.124687225
254	0xbd93fd1f	-0.072260134
255	0xbc6e8ed0	-0.014560416

fc2.bias f4 [10]
0	0x3d15f480	0.036610126
1	0x3dd8a6da	0.105786994
2	0xbd179f56	-0.03701719
3	0xbd1e2eaa	-0.03861872
4	0xbe01ad3c	-0.1266374
5	0xbdfd3380	-0.123633385
6	0x3dd43e20	0.10363412
7	0xbe015394	-0.12629539
8	0x3dd7dcca	0.10540159
9	0xbd03fe44	-0.03222491
